…
t=0.2, anchor_t=4.0, fl_gamma=0.0, hsv_h=0.015, hsv_s=0.7, hsv_v=0.4, degrees=0.0, translate=0.1, scale=0.5, shear=0.0, perspective=0.0, flipud=0.0, fliplr=0.5, mosaic=1.0, mixup=0.0, copy_paste=0.0\r\nWeights & Biases: run 'pip install wandb' to automatically track and visualize YOLOv5  runs (RECOMMENDED)\r\nTensorBoard: Start with 'tensorboard --logdir runs\\train', view at [http://localhost:6006/]()\r\nOverriding model.yaml nc=80 with nc=1\r\n\r\n                 from  n    params  module                                  arguments                     \r\n  0                -1  1      3520  models.common.Conv                      [3, 32, 6, 2, 2]              \r\n  1                -1  1     18560  models.common.Conv                      [32, 64, 3, 2]                \r\n  2                -1  1     18816  models.common.C3                        [64, 64, 1]                   \r\n  3                -1  1     73984  models.common.Conv                      [64, 128, 3, 2]               \r\n  4                -1  2    115712  models.common.C3                        [128, 128, 2]                 \r\n  5                -1  1    295424  models.common.Conv                      [128, 256, 3, 2]              \r\n  6                -1  3    625152  models.common.C3                        [256, 256, 3]                 \r\n  7                -1  1   1180672  models.common.Conv                      [256, 512, 3, 2]              \r\n  8                -1  1   1182720  models.common.C3                        [512, 512, 1]                 \r\n  9                -1  1    656896  models.common.SPPF                      [512, 512, 5]                 \r\n 10                -1  1    131584  models.common.Conv                      [512, 256, 1, 1]              \r\n 11                -1  1         0  torch.nn.modules.upsampling.Upsample    [None, 2, 'nearest']          \r\n 12           [-1, 6]  1         0  models.common.Concat                    [1]                           \r\n 13                -1  1    361984  models.common.C3                        [512, 256, 1, False]          \r\n 14                -1  1     33024  models.common.Conv                      [256, 128, 1, 1]              \r\n 15                -1  1         0  torch.nn.modules.upsampling.Upsample    [None, 2, 'nearest']          \r\n...\r\n    exitcode = _main(fd, parent_sentinel)\r\n  File \"G:\\Anaconda\\envs\\yolov5\\lib\\multiprocessing\\spawn.py\", line 126, in _main\r\n    self = reduction.pickle.load(from_parent)\r\nEOFError: Ran out of input\n\n### Versions\n\ni am a fresh to yolo,I follow a yolov5 teach blog:https://blog.roboflow.com/how-to-train-yolov5-on-a-custom-dataset/\uff0cand i
…
